name: "LeNet_HCNN_small"
layer {
  name: "mnist"
  type: "Data"
  top: "data"
  top: "label"
  include {
    phase: TRAIN
  }
  transform_param {
    scale: 0.00390625
  }
  data_param {
    source: "/home/zhuo/caffe/examples/mnist/mnist_train_lmdb"
    batch_size: 500
    backend: LMDB
  }
}
layer {
  name: "mnist"
  type: "Data"
  top: "data"
  top: "label"
  include {
    phase: TEST
  }
  transform_param {
    scale: 0.00390625
  }
  data_param {
    source: "/home/zhuo/caffe/examples/mnist/mnist_test_lmdb"
    batch_size: 100
    backend: LMDB
  }
}
layer {
  name: "conv1"
  type: "Convolution"
  bottom: "data"
  top: "conv1"
  param {
    lr_mult: 1
  }
  param {
    lr_mult: 2
  }
  convolution_param {
    num_output: 20
    kernel_size: 5
    stride: 1
    weight_filler {
      type: "xavier"
    }
    bias_filler {
      type: "constant"
    }
  }
}
layer {
  name: "pool1"
  type: "Pooling"
  bottom: "conv1"
  top: "pool1"
  pooling_param {
    pool: MAX
    kernel_size: 2
    stride: 2
  }
}
layer {
  name: "ip1/b0"
  type: "InnerProduct"
  bottom: "pool1"
  top: "ip1/b0"
  param {
    lr_mult: 1
  }
  param {
    lr_mult: 2
  }
  inner_product_param {
    num_output: 10
    weight_filler {
      type: "xavier"
    }
    bias_filler {
      type: "constant"
    }
  }
}
layer {
  name: "smax/b0"
  type: "Softmax"
  bottom: "ip1/b0"
  top: "smax/b0"
}

# branch 1
layer {
  name: "ip1/b1"
  type: "InnerProduct"
  bottom: "pool1"
  top: "ip1/b1"
  param {
    lr_mult: 1
  }
  param {
    lr_mult: 2
  }
  inner_product_param {
    num_output: 10
    weight_filler {
      type: "xavier"
    }
    bias_filler {
      type: "constant"
    }
  }
}
layer {
  name: "smax/b1"
  type: "Softmax"
  bottom: "ip1/b1"
  top: "smax/b1"
}
layer {
  name: "smax/b0/reshape"
  top: "smax/b0/reshape"
  type: "Reshape"
  bottom: "smax/b0"
  reshape_param{
    shape{
     dim:0
     dim: 1
     dim: -1
    }
  }
}
layer {
  name: "smax/b1/reshape"
  top: "smax/b1/reshape"
  type: "Reshape"
  bottom: "smax/b1"
  reshape_param{
    shape{
     dim:0
     dim: 1
     dim: -1
    }
  }
}
layer {
  name: "out/concat"
  type: "Concat"
  bottom: "smax/b0/reshape"
  bottom: "smax/b1/reshape"
  top: "out/concat"
}

### branch classifier
layer {
  name: "ip1/bclass"
  type: "InnerProduct"
  bottom: "pool1"
  top: "ip1/bclass"
  param {
    lr_mult: 1
  }
  param {
    lr_mult: 2
  }
  inner_product_param {
    num_output: 2
    weight_filler {
      type: "xavier"
    }
    bias_filler {
      type: "constant"
    }
  }
}
layer {
  name: "smax/bclass"
  type: "Softmax"
  bottom: "ip1/bclass"
  top: "smax/bclass"
}

##################################
# outputs and loss
################################
layer {
  name: "stochout"
  top: "stochout"
  type: "Python"
  bottom: "out/concat"
  bottom: "smax/bclass"
  python_param{
    module: "stoch_output"
    layer: "StochOutLayer"
  }
  include {
    phase: TEST
  }
}
layer {
  name: "accuracy"
  type: "Accuracy"
  bottom: "stochout"
  bottom: "label"
  top: "accuracy"
  include {
    phase: TEST
  }
}
layer {
  name: "stochloss"
  type: "Python"
  bottom: "out/concat"
  bottom: "label"
  bottom: "smax/bclass"
  top: "stochloss"
  python_param{
    module: "stoch_loss"
    layer: "StochLossLayer"
  }
}
layer {
  name: "loss"
  top: "loss"
  type: "Reduction"
  bottom: "stochloss"
  reduction_param{
    operation: 4
  }
  loss_weight: 1
}
